yolo_custom
layer     filters    size              input                output
   0 conv     32  3 x 3 / 1   608 x 608 x   3   ->   608 x 608 x  32 0.639 BF
   1 conv     64  3 x 3 / 2   608 x 608 x  32   ->   304 x 304 x  64 3.407 BF
   2 conv     32  1 x 1 / 1   304 x 304 x  64   ->   304 x 304 x  32 0.379 BF
   3 conv     64  3 x 3 / 1   304 x 304 x  32   ->   304 x 304 x  64 3.407 BF
   4 Shortcut Layer: 1
   5 conv    128  3 x 3 / 2   304 x 304 x  64   ->   152 x 152 x 128 3.407 BF
   6 conv     64  1 x 1 / 1   152 x 152 x 128   ->   152 x 152 x  64 0.379 BF
   7 conv    128  3 x 3 / 1   152 x 152 x  64   ->   152 x 152 x 128 3.407 BF
   8 Shortcut Layer: 5
   9 conv     64  1 x 1 / 1   152 x 152 x 128   ->   152 x 152 x  64 0.379 BF
  10 conv    128  3 x 3 / 1   152 x 152 x  64   ->   152 x 152 x 128 3.407 BF
  11 Shortcut Layer: 8
  12 conv    256  3 x 3 / 2   152 x 152 x 128   ->    76 x  76 x 256 3.407 BF
  13 conv    128  1 x 1 / 1    76 x  76 x 256   ->    76 x  76 x 128 0.379 BF
  14 conv    256  3 x 3 / 1    76 x  76 x 128   ->    76 x  76 x 256 3.407 BF
  15 Shortcut Layer: 12
  16 conv    128  1 x 1 / 1    76 x  76 x 256   ->    76 x  76 x 128 0.379 BF
  17 conv    256  3 x 3 / 1    76 x  76 x 128   ->    76 x  76 x 256 3.407 BF
  18 Shortcut Layer: 15
  19 conv    128  1 x 1 / 1    76 x  76 x 256   ->    76 x  76 x 128 0.379 BF
  20 conv    256  3 x 3 / 1    76 x  76 x 128   ->    76 x  76 x 256 3.407 BF
  21 Shortcut Layer: 18
  22 conv    128  1 x 1 / 1    76 x  76 x 256   ->    76 x  76 x 128 0.379 BF
  23 conv    256  3 x 3 / 1    76 x  76 x 128   ->    76 x  76 x 256 3.407 BF
  24 Shortcut Layer: 21
  25 conv    128  1 x 1 / 1    76 x  76 x 256   ->    76 x  76 x 128 0.379 BF
  26 conv    256  3 x 3 / 1    76 x  76 x 128   ->    76 x  76 x 256 3.407 BF
  27 Shortcut Layer: 24
  28 conv    128  1 x 1 / 1    76 x  76 x 256   ->    76 x  76 x 128 0.379 BF
  29 conv    256  3 x 3 / 1    76 x  76 x 128   ->    76 x  76 x 256 3.407 BF
  30 Shortcut Layer: 27
  31 conv    128  1 x 1 / 1    76 x  76 x 256   ->    76 x  76 x 128 0.379 BF
  32 conv    256  3 x 3 / 1    76 x  76 x 128   ->    76 x  76 x 256 3.407 BF
  33 Shortcut Layer: 30
  34 conv    128  1 x 1 / 1    76 x  76 x 256   ->    76 x  76 x 128 0.379 BF
  35 conv    256  3 x 3 / 1    76 x  76 x 128   ->    76 x  76 x 256 3.407 BF
  36 Shortcut Layer: 33
  37 conv    512  3 x 3 / 2    76 x  76 x 256   ->    38 x  38 x 512 3.407 BF
  38 conv    256  1 x 1 / 1    38 x  38 x 512   ->    38 x  38 x 256 0.379 BF
  39 conv    512  3 x 3 / 1    38 x  38 x 256   ->    38 x  38 x 512 3.407 BF
  40 Shortcut Layer: 37
  41 conv    256  1 x 1 / 1    38 x  38 x 512   ->    38 x  38 x 256 0.379 BF
  42 conv    512  3 x 3 / 1    38 x  38 x 256   ->    38 x  38 x 512 3.407 BF
  43 Shortcut Layer: 40
  44 conv    256  1 x 1 / 1    38 x  38 x 512   ->    38 x  38 x 256 0.379 BF
  45 conv    512  3 x 3 / 1    38 x  38 x 256   ->    38 x  38 x 512 3.407 BF
  46 Shortcut Layer: 43
  47 conv    256  1 x 1 / 1    38 x  38 x 512   ->    38 x  38 x 256 0.379 BF
  48 conv    512  3 x 3 / 1    38 x  38 x 256   ->    38 x  38 x 512 3.407 BF
  49 Shortcut Layer: 46
  50 conv    256  1 x 1 / 1    38 x  38 x 512   ->    38 x  38 x 256 0.379 BF
  51 conv    512  3 x 3 / 1    38 x  38 x 256   ->    38 x  38 x 512 3.407 BF
  52 Shortcut Layer: 49
  53 conv    256  1 x 1 / 1    38 x  38 x 512   ->    38 x  38 x 256 0.379 BF
  54 conv    512  3 x 3 / 1    38 x  38 x 256   ->    38 x  38 x 512 3.407 BF
  55 Shortcut Layer: 52
  56 conv    256  1 x 1 / 1    38 x  38 x 512   ->    38 x  38 x 256 0.379 BF
  57 conv    512  3 x 3 / 1    38 x  38 x 256   ->    38 x  38 x 512 3.407 BF
  58 Shortcut Layer: 55
  59 conv    256  1 x 1 / 1    38 x  38 x 512   ->    38 x  38 x 256 0.379 BF
  60 conv    512  3 x 3 / 1    38 x  38 x 256   ->    38 x  38 x 512 3.407 BF
  61 Shortcut Layer: 58
  62 conv   1024  3 x 3 / 2    38 x  38 x 512   ->    19 x  19 x1024 3.407 BF
  63 conv    512  1 x 1 / 1    19 x  19 x1024   ->    19 x  19 x 512 0.379 BF
  64 conv   1024  3 x 3 / 1    19 x  19 x 512   ->    19 x  19 x1024 3.407 BF
  65 Shortcut Layer: 62
  66 conv    512  1 x 1 / 1    19 x  19 x1024   ->    19 x  19 x 512 0.379 BF
  67 conv   1024  3 x 3 / 1    19 x  19 x 512   ->    19 x  19 x1024 3.407 BF
  68 Shortcut Layer: 65
  69 conv    512  1 x 1 / 1    19 x  19 x1024   ->    19 x  19 x 512 0.379 BF
  70 conv   1024  3 x 3 / 1    19 x  19 x 512   ->    19 x  19 x1024 3.407 BF
  71 Shortcut Layer: 68
  72 conv    512  1 x 1 / 1    19 x  19 x1024   ->    19 x  19 x 512 0.379 BF
  73 conv   1024  3 x 3 / 1    19 x  19 x 512   ->    19 x  19 x1024 3.407 BF
  74 Shortcut Layer: 71
  75 conv    512  1 x 1 / 1    19 x  19 x1024   ->    19 x  19 x 512 0.379 BF
  76 conv   1024  3 x 3 / 1    19 x  19 x 512   ->    19 x  19 x1024 3.407 BF
  77 conv    512  1 x 1 / 1    19 x  19 x1024   ->    19 x  19 x 512 0.379 BF
  78 conv   1024  3 x 3 / 1    19 x  19 x 512   ->    19 x  19 x1024 3.407 BF
  79 conv    512  1 x 1 / 1    19 x  19 x1024   ->    19 x  19 x 512 0.379 BF
  80 conv   1024  3 x 3 / 1    19 x  19 x 512   ->    19 x  19 x1024 3.407 BF
  81 conv     18  1 x 1 / 1    19 x  19 x1024   ->    19 x  19 x  18 0.013 BF
  82 yolo
  83 route  79
  84 conv    256  1 x 1 / 1    19 x  19 x 512   ->    19 x  19 x 256 0.095 BF
  85 upsample            2x    19 x  19 x 256   ->    38 x  38 x 256
  86 route  85 61
  87 conv    256  1 x 1 / 1    38 x  38 x 768   ->    38 x  38 x 256 0.568 BF
  88 conv    512  3 x 3 / 1    38 x  38 x 256   ->    38 x  38 x 512 3.407 BF
  89 conv    256  1 x 1 / 1    38 x  38 x 512   ->    38 x  38 x 256 0.379 BF
  90 conv    512  3 x 3 / 1    38 x  38 x 256   ->    38 x  38 x 512 3.407 BF
  91 conv    256  1 x 1 / 1    38 x  38 x 512   ->    38 x  38 x 256 0.379 BF
  92 conv    512  3 x 3 / 1    38 x  38 x 256   ->    38 x  38 x 512 3.407 BF
  93 conv     18  1 x 1 / 1    38 x  38 x 512   ->    38 x  38 x  18 0.027 BF
  94 yolo
  95 route  91
  96 conv    128  1 x 1 / 1    38 x  38 x 256   ->    38 x  38 x 128 0.095 BF
  97 upsample            2x    38 x  38 x 128   ->    76 x  76 x 128
  98 route  97 36
  99 conv    128  1 x 1 / 1    76 x  76 x 384   ->    76 x  76 x 128 0.568 BF
 100 conv    256  3 x 3 / 1    76 x  76 x 128   ->    76 x  76 x 256 3.407 BF
 101 conv    128  1 x 1 / 1    76 x  76 x 256   ->    76 x  76 x 128 0.379 BF
 102 conv    256  3 x 3 / 1    76 x  76 x 128   ->    76 x  76 x 256 3.407 BF
 103 conv    128  1 x 1 / 1    76 x  76 x 256   ->    76 x  76 x 128 0.379 BF
 104 conv    256  3 x 3 / 1    76 x  76 x 128   ->    76 x  76 x 256 3.407 BF
 105 conv     18  1 x 1 / 1    76 x  76 x 256   ->    76 x  76 x  18 0.053 BF
 106 yolo
Total BFLOPS 139.465 
 Allocate additional workspace_size = 55.45 MB 
Loading weights from /content/darknet/darknet53.conv.74...
 seen 64 
Done!
Learning Rate: 0.001, Momentum: 0.9, Decay: 0.0005
Resizing
896 x 896 
 try to allocate additional workspace_size = 120.43 MB 
 CUDA allocate done! 
Loaded: 0.000055 seconds
 Very small path to the image:  
…
